baseline 0.8177/best.pt (torch, 412199 bytes, 14 tensors)

model.0.module.weight f4 [128, 64, 5]
000000 bc 52 90 be 52 27 a7 be 06 42 b6 be 57 9c e0 be
       -0.2818812 -0.32647187 -0.35597247 -0.43869278
000010 d4 d2 12 bf a4 ac c1 bd 83 b0 c7 bd 38 86 25 bd
       -0.5735295 -0.09456757 -0.09750464 -0.040411204
000020 bf 62 89 3d eb fe 35 bd ae 49 61 bd 15 aa b7 bd
       0.067082874 -0.04443256 -0.055001907 -0.089679874
000030 4b a2 f8 3b 6f 05 93 3d dc 57 4a bd 77 49 eb 3e
       0.007587706 0.07178771 -0.049400195 0.45954487
000040 29 c4 cc 3e c4 29 8d 3e 20 f6 0e 3e ff 71 6c bd
       0.39993408 0.27570927 0.13961077 -0.057725903
000050 fd 94 0c 3f b6 97 e6 3e 40 2f 2d 3e a2 70 3e 3c
       0.5491484 0.4503762 0.16912556 0.011623533
000060 29 74 d0 3d 7e 22 bd bc 2a 39 44 3d f4 f8 68 3c
       0.10178406 -0.023087736 0.04790608 0.014219511
000070 00 d3 46 3c ff 9f 02 3d 24 36 0c 3e 6f a6 0d 3e
       0.012135267 0.031890865 0.13692528 0.1383302
000080 ee 78 8e 3d de 43 f0 3d e8 12 41 3e a8 ac 3e 3e
       0.06956659 0.11731695 0.18854868 0.1862055
000090 cd f7 9c bd 11 53 9d be a3 e7 87 be 2c f7 a1 bd
       -0.07664452 -0.30727437 -0.26543912 -0.079084724
0000a0 88 aa db 3d 57 87 d1 bc e7 73 b0 bd 0a 8a d3 bb
       0.10725886 -0.02557723 -0.086158566 -0.0064556645
0000b0 1b e3 10 3e e5 67 c1 bd 23 96 5b be f4 a1 00 be
       0.14149134 -0.094436444 -0.21443991 -0.1256178
0000c0 85 db 24 3d f4 62 da 3d 58 2f e1 bd 9b 14 b3 3c
       0.040248413 0.10663405 -0.10995358 0.021860411
0000d0 4f 8c 61 3c 9f b6 82 bd 07 bd 3c bd 03 90 7f 3d
       0.013766362 -0.063824885 -0.046078708 0.0623932
0000e0 ca 24 99 3d ff 3c 9c 3c bf 6d ce 3b 69 32 b0 3d
       0.0747772 0.019072054 0.006299704 0.08603365
0000f0 32 75 29 3e 69 20 e0 3c 28 23 1f be 74 18 9b bd
       0.16548613 0.027359204 -0.15540755 -0.075730234
000100 b6 98 72 bd 6c cd c5 3d cb 7d 5b 3d 87 94 84 3c
       -0.059227668 0.09658322 0.053586762 0.016184105
000110 9b 45 27 bd 29 32 04 bc 9b 77 05 3e d3 8c 55 3c
       -0.040837865 -0.0080686 0.13033907 0.013034063
000120 1d 9f 90 3c d5 58 d1 3c 74 a0 1c 3e db 86 cc 3d
       0.017653996 0.025555054 0.15295583 0.09986659
000130 34 e6 69 3d ad e3 26 be b0 3d 87 be 39 cf 98 be
       0.057104304 -0.16297789 -0.2641425 -0.29845598
000140 98 b2 eb bd 57 85 63 3d 2f ca 89 3d 43 21 a9 3d
       -0.115086734 0.055547085 0.067280166 0.08258297
000150 e0 0c c4 3d 36 1f cc bd f5 28 46 bd bd 5f 4a 3d
       0.09572768 -0.099668905 -0.048378903 0.04940771
000160 69 d8 6b 3c 69 d5 bb 3d d3 cc 0c 3e 08 21 91 3d
       0.014394858 0.09171564 0.13750009 0.07086378
000170 c7 ef 90 bd 43 b8 49 be d4 0a 15 bd 24 96 6b bd
       -0.07076984 -0.19699197 -0.03638728 -0.057516232
000180 f0 5b 14 be c3 d2 45 be a0 c8 aa bd 71 02 bd 3d
       -0.14488196 -0.1931868 -0.083390474 0.09228981
000190 50 86 2e 3c f5 ef d0 3d 20 b5 05 3e da ec 1a 3e
       0.01065214 0.10202018 0.13057375 0.15129414
0001a0 e3 86 1e 3e aa cc 81 3d 2d 9d a3 3d 9a 06 9e 3d
       0.15481143 0.06337865 0.07988963 0.07716103
0001b0 a9 1c 20 bd 44 d9 9c bd a9 72 8f 3e cf 23 21 3e
       -0.039089832 -0.07658628 0.28017166 0.15736316
0001c0 31 dc de 3d ad f9 2c 3c ec e2 70 bb a9 f8 18 3e
       0.10881842 0.010557574 -0.003675635 0.14938606
0001d0 3d 76 87 bd c5 e4 56 be 80 2c fb bd 10 41 40 3c
       -0.06614349 -0.20985706 -0.12264347 0.011734262
0001e0 26 73 d0 3d 2c ef 48 3d d2 65 75 3d 8b 59 17 bd
       0.10178213 0.049056217 0.059911557 -0.03695063
0001f0 d5 2b e5 bd d0 44 35 b9 34 11 db 3d 10 82 dc 3d
       -0.11190001 -0.0001728714 0.106966406 0.10766995
000200 6d 97 2a 3c e9 95 0b bd ee f8 98 3e 7f 05 d2 3c
       0.010412079 -0.034078512 0.29877418 0.025637386
000210 2d 38 31 be 31 c5 47 be 2d 3e ba bd 87 be fb 3d
       -0.17306586 -0.19508816 -0.0909389 0.122921996
000220 18 ee 84 bd 88 e1 50 be a9 1d 04 bc a9 34 de 3d
       -0.06490725 -0.20398533 -0.008063712 0.10849888
000230 16 99 96 3e ca bf 30 3e d0 fa 07 be 88 53 b1 bd
       0.2941367 0.17260662 -0.13279271 -0.086585104
000240 81 35 5e 3d db 59 ef 3b 01 3b 97 be ed a8 ce be
       0.054250244 0.007304413 -0.29537204 -0.40363255
000250 95 98 cb bc 76 92 3e 3e cf 61 5d be 94 6c d4 be
       -0.02485303 0.18610558 -0.21619342 -0.4148909
000260 b0 bf 64 be 5c b8 5b bd 40 af ea 3b 72 04 6a be
       -0.22338748 -0.053642616 0.0071620047 -0.22853258
000270 5a a8 c0 be 02 c7 94 be 8f 6c 2a be 99 b0 86 bd
       -0.37628442 -0.2905808 -0.16642974 -0.06576652
000280 4b f6 ad be 2d c5 a1 be 61 73 2a be c8 e4 3e 3e
       -0.3397697 -0.31595746 -0.16645576 0.1864196
000290 6c ea b9 3e 08 cf cd bd 0a 77 a0 be 4c 28 39 be
       0.36311662 -0.10049254 -0.3134082 -0.18081778
0002a0 22 ea cd 3d 77 f9 2a 3e ec b8 80 bd a9 c6 87 bd
       0.10054423 0.16696726 -0.06285271 -0.06629688
0002b0 d4 75 35 3c 5a 8e 50 bc a2 fe 74 ba 39 a2 8f be
       0.011075456 -0.012729252 -0.00093458046 -0.28053454
0002c0 e5 bf 85 be 3a 27 19 bd 21 bd 2a 3e e9 50 d9 3e
       -0.26122966 -0.037390925 0.1667371 0.42444542
0002d0 ac 36 e5 3c 7d a7 16 be eb 54 55 be 9c 21 0e 3c
       0.027980171 -0.14712329 -0.20833175 0.008675005
0002e0 fb ae e6 3d a4 a8 37 3e ad 96 28 be 1c 9e 0c be
       0.112638436 0.17935425 -0.16463728 -0.13732189
0002f0 a2 5b e7 bd 42 ab 65 be a3 19 cf 3d 54 48 57 bd
       -0.112967744 -0.22428611 0.10112312 -0.05255921
000300 d3 87 d6 bd 8d 78 82 3d e1 c3 57 3d 4f 72 41 3d
       -0.10475125 0.063706495 0.05267704 0.047228154
000310 8b ec af bd 89 f5 36 3e 4b 5b a2 3e e7 f2 69 3e
       -0.08590039 0.17867102 0.31710276 0.22846566
000320 0f ed 14 bf df db 17 bf dc 0c c4 be 81 1b 82 3d
       -0.5817422 -0.5931987 -0.3829106 0.06352902
000330 19 78 ae 3e 8f 21 7a bf 5f c4 66 bf fd 5d ea be
       0.34076002 -0.97707456 -0.9014339 -0.45774832
000340 bc 46 28 3d db 2e 84 3e eb 9a 62 bf ff e6 69 bf
       0.041083083 0.25816998 -0.88517636 -0.913681
000350 5b bd d3 be 4a f8 c4 3e 9e aa 14 3f 29 f1 5a bf
       -0.41355404 0.3847068 0.5807284 -0.8552423
000360 c9 3f 21 bf 05 62 45 be 8e 34 86 3e cb 75 09 3f
       -0.62987953 -0.19275673 0.2621197 0.5369536
000370 27 2f 1c bf d6 59 db be 0f bf 47 bd fc 4e dd 3e
       -0.6100945 -0.42841977 -0.048766192 0.43224323
000380 86 93 2e 3f 23 06 16 bf bf e4 da be ad c4 88 bd
       0.6819385 -0.58603114 -0.42752644 -0.06678138
000390 f3 fd bb 3e 06 c8 0f 3f d3 1b 3b bf 44 ae 04 bf
       0.36717185 0.56164587 -0.7308933 -0.5182841
0003a0 d1 fb 87 bd 63 9d 63 3e 70 c2 94 3e af 9f 31 bf
       -0.06639827 0.22228007 0.29054594 -0.6938428
0003b0 9b 20 d6 be 54 77 13 3d b5 ad 96 3e e2 cb e0 3e
       -0.4182175 0.036002472 0.29429403 0.4390555
0003c0 5f 84 73 bf 4d ce 42 bf ef 66 ab bd 74 e1 bd 3e
       -0.9512386 -0.7609604 -0.083692424 0.3708607
0003d0 cf 05 d6 3e 7d e7 7d bf 76 30 37 bf 54 23 d8 bd
       0.41801307 -0.9918135 -0.7155832 -0.10553613
0003e0 ac a8 d9 3c 81 8f cf bd 28 49 70 bf 53 3e 59 bf
       0.026569687 -0.10134793 -0.9386163 -0.84860724
0003f0 7b b5 27 bf e2 66 f6 be 4e 3d e8 be b4 93 8e bf
       -0.6551129 -0.48125368 -0.45359272 -1.1138825

model.0.module.bias f4 [128]
000000 35 5c d0 3f 4f cb 4c 3f ed 5c ab 3f 36 62 3c 40
       1.6278139 0.79997724 1.3387734 2.9434943
000010 4d ae 18 3f d8 ba 17 40 6e e4 b1 3f 0f 00 c3 3f
       0.5964096 2.370779 1.3897836 1.5234393
000020 a5 18 a6 3f 1c 7c e0 3f 40 a7 3e 40 0d 61 04 40
       1.2976271 1.7537875 2.9789581 2.0684235
000030 ba c6 bf 3d 3b 99 1e 40 8b 74 1c 3f 34 19 b1 3f
       0.09364076 2.4781024 0.6111533 1.3835816
000040 e1 a4 10 40 c0 88 c0 3e 43 5b 96 3d e5 0f ad 3f
       2.2600634 0.37604332 0.073416255 1.3520476
000050 05 6b eb 3f 8a ae d1 3f 1b 47 f8 3e af 4d 73 3e
       1.8392035 1.638139 0.4849175 0.23760103
000060 3c ca 83 3f c8 91 28 3f 01 00 e0 3f bf 7b 1a 40
       1.0296092 0.65847445 1.7500001 2.4138029
000070 fa 9a 8d 3f d0 ce 1b 3f 12 fd 38 40 34 fc 01 40
       1.106292 0.60862446 2.8904462 2.0310183
000080 6b 96 71 3f 29 1c dd 3f 7b 95 b0 3f 44 8c 79 3f
       0.94370145 1.7274219 1.3795618 0.97479653
000090 ad 8f b6 3f 44 dc 7c 3f 74 37 bf 3f db ba 36 40
       1.4262596 0.987736 1.4938798 2.8551548
0000a0 80 85 a8 3e 19 92 ea 3e 23 ff 1f 40 90 d5 01 40
       0.32914352 0.4581459 2.4999473 2.0286598
0000b0 51 40 01 40 c6 e9 03 40 09 d2 3a 3e 2b 9a e8 3f
       2.0195506 2.0611434 0.18244185 1.8172048
0000c0 72 cf 20 3f 16 69 10 40 b2 74 84 3f 17 ae 2d 3f
       0.62816536 2.256414 1.0348113 0.67843765
0000d0 21 9d 89 3f 2e cd 8f 3f b3 1a 7a 3f 34 35 25 40
       1.0751077 1.1234491 0.9769699 2.5813723
0000e0 1a 33 18 40 d7 90 d6 3f 09 ba 8d 3f 50 6c 14 40
       2.378119 1.6762952 1.1072398 2.3191109
0000f0 a6 02 0a 40 3c 8a e8 3e 13 18 97 3f 7d 00 d6 3f
       2.1564116 0.45417964 1.1804222 1.6718899
000100 cb 8a 36 40 83 ef a8 3f 9f 69 f6 3f dd f0 79 3e
       2.8522213 1.3198093 1.9250983 0.24408288
000110 85 59 aa 3f 02 02 12 40 4a 69 01 3f 64 96 a9 3f
       1.3308569 2.2813725 0.50551283 1.324902
000120 72 ad b9 3e 0f a0 88 3f 9d e0 38 3f 86 44 a6 3f
       0.3626514 1.0673846 0.7221773 1.2989662
000130 5e c9 b1 3f c4 41 e7 3f a7 ea b9 3e 50 1d 9d 3f
       1.3889577 1.8066945 0.36311838 1.227457
000140 ff 5a 9f 3f 63 21 21 40 a3 ce 1f 40 e2 b6 1c 40
       1.2449645 2.5176628 2.496987 2.4486623
000150 23 aa 0b 40 2e 74 90 3f d3 17 d8 3f ea 0b 43 3f
       2.1822593 1.1285455 1.688227 0.76190054
000160 c6 45 d1 3f 23 55 01 40 47 0d e9 3e d5 94 a8 3d
       1.6349418 2.0208213 0.45517942 0.082315125
000170 57 93 87 3f 1e 93 14 3e 1b a3 04 40 19 3c ef 3f
       1.059184 0.14509246 2.0724552 1.8690215
000180 b5 2a 83 3e 63 3d 0c 40 1f b3 c2 3f 58 e7 4b 40
       0.2561852 2.1912467 1.5210913 3.185995
000190 2d 53 b1 3f 12 ca 0d 40 89 55 84 3f 61 5b cf 3e
       1.3853508 2.2154584 1.0338603 0.40499404
0001a0 76 3d 1d 40 4c 7d 9f 3f 3d 30 f7 3d ae 2e 97 3f
       2.4568763 1.2460113 0.120697476 1.181112
0001b0 45 91 ae 3f 54 56 b8 3e 19 90 20 40 d1 30 c5 3f
       1.3638083 0.36003363 2.508795 1.5405523
0001c0 dd 2e bb 3e 49 f7 30 3e 47 eb ea 3f db 26 3b 40
       0.3655919 0.17281832 1.8353051 2.9242465
0001d0 c6 ec de 3f fc 06 84 3e ab ff 9f 3f 8c fe 82 3f
       1.7416008 0.2578658 1.2499899 1.0233932
0001e0 e9 ce 07 3f d6 35 b7 3f 14 a8 b8 3f 90 f2 8b 3f
       0.53050095 1.4313304 1.4426293 1.0933399
0001f0 18 27 8b 3e d5 9a 2b 40 32 9f fe 3f cb 77 ae 3e
       0.27178264 2.6813252 1.9892333 0.3407577

model.2.module.weight f4 [128]
000000 fe 8b 81 3f 7e ac 9f 3f 87 3c dc 3f 62 02 a3 3f
       1.0120847 1.2474515 1.7205971 1.2735102
000010 70 12 85 3f 43 85 88 3f 74 28 99 3f d6 94 ac 3f
       1.0396252 1.0665668 1.196547 1.3482921
000020 22 d2 84 3f 38 66 92 3f 74 e6 98 3f 9f 61 9d 3f
       1.0376627 1.1437445 1.1945329 1.2295417
000030 6d ac 7a 3f 2a b1 b0 3f ba e0 b4 3f 17 e1 7b 3f
       0.9791935 1.3804066 1.4131081 0.98390335
000040 c0 0f 48 3f 0e e0 8f 3f 73 95 90 3f f2 a2 84 3f
       0.7814903 1.1240251 1.1295608 1.0362227
000050 32 80 c0 3f 97 d0 ad 3f 62 0b 8c 3f 20 68 9a 3f
       1.5039122 1.3579282 1.0940974 1.2063026
000060 25 9f 93 3f 42 a8 a3 3f 67 7e 89 3f 66 eb 83 3f
       1.1532942 1.2785723 1.07417 1.0306213
000070 27 6f d7 3f 8e 7d b4 3f e3 34 9d 3f 7a e0 95 3f
       1.6830796 1.4100816 1.2281765 1.170913
000080 60 35 b7 3f a8 c8 cc 3f ff 79 96 3f 01 c9 7d 3f
       1.4313164 1.5998735 1.175598 0.9913483
000090 29 e6 71 3f 80 28 99 3f e2 2d a5 3f f7 fb b4 3f
       0.9449182 1.1965485 1.2904627 1.4139394
0000a0 aa bb b5 3f 70 16 7d 3f e1 b7 96 3f 54 82 93 3f
       1.4197896 0.9886236 1.1774865 1.1524148
0000b0 14 bd a1 3f 9f 2c 8c 3f ea c0 b5 3f f9 6c 93 3f
       1.2635827 1.0951117 1.4199498 1.1517631
0000c0 0f 5e 9d 3f 80 f3 8e 3f a3 e6 ab 3f 8e 8f 66 3f
       1.229433 1.116806 1.342976 0.900628
0000d0 f9 6e 89 3f df 43 5b 3f af 53 bb 3f e6 cd 61 3f
       1.0736991 0.8565044 1.4634913 0.882048
0000e0 3f 2a 86 3f 5f 18 ac 3f c4 9a c1 3f 78 f4 68 3f
       1.0481642 1.3444937 1.5125356 0.9099803
0000f0 34 ef 8f 3f f9 29 6d 3f 93 33 69 3f 9a 94 ab 3f
       1.1244874 0.9264217 0.9109432 1.3404725
000100 c2 fc 99 3f 5f fb a2 3f 49 9d b1 3f 11 46 a5 3f
       1.203026 1.2732962 1.3876125 1.2912008
000110 ee a4 99 3f 36 7e 9d 3f f2 2b a7 3f 5d e4 a8 3f
       1.2003458 1.2304142 1.3060286 1.3194691
000120 e4 e3 a0 3f 5a 15 aa 3f 5b 0d 9a 3f 79 7c 8a 3f
       1.2569547 1.3287766 1.2035326 1.0819236
000130 5c 28 77 3f 2f b5 90 3f 32 b9 a9 3f 12 cb 92 3f
       0.9654596 1.1305293 1.3259642 1.1468222
000140 fc ae b5 3f ac 49 86 3f a7 1e bb 3f 08 80 80 3f
       1.4194026 1.0491233 1.4618729 1.0039072
000150 2e 5d 94 3f 17 78 85 3f 73 fd 99 3f 17 7f 98 3f
       1.1590936 1.0427274 1.2030472 1.1913785
000160 ec f7 95 3f ab 65 88 3f 54 f2 92 3f e5 b3 bc 3f
       1.1716285 1.0656027 1.1480203 1.47424
000170 65 89 9b 3f 7d 9a 96 3f 0a 27 81 3f 5a 47 66 3f
       1.2151304 1.1765896 1.0090039 0.89952624
000180 a9 6a 53 3f d9 44 95 3f a7 47 7e 3f 3f 1b 98 3f
       0.82584625 1.1661636 0.9932808 1.1883315
000190 a9 68 6b 3f 86 4f 98 3f 44 77 ab 3f 47 99 9f 3f
       0.91956574 1.1899269 1.3395772 1.2468652
0001a0 c1 76 94 3f 37 da b7 3f 1a c1 99 3f 04 3d 9e 3f
       1.1598741 1.4363469 1.2012055 1.236237
0001b0 ab 67 9c 3f d5 63 98 3f ee 21 83 3f c9 08 a2 3f
       1.2219137 1.1905466 1.024473 1.2658931
0001c0 fc f1 7d 3f 6a 61 8d 3f 40 3e 8c 3f 7a 86 a2 3f
       0.99197364 1.1045353 1.0956497 1.2697289
0001d0 c1 c5 81 3f c9 6d 84 3f df f6 8a 3f b9 58 97 3f
       1.0138475 1.0346004 1.0856589 1.1823951
0001e0 0d 2c 85 3f b5 39 80 3f 21 14 87 3f b2 e2 b6 3f
       1.0404068 1.0017611 1.0553018 1.4287932
0001f0 04 6f 86 3f 3e 1a 89 3f 2a b0 8b 3f d6 d9 93 3f
       1.0502629 1.0711133 1.0913136 1.1550853

model.2.module.bias f4 [128]
000000 e7 ca 2d 3e 4e e7 9f 3d a5 71 84 3e fb 80 3e 3e
       0.16971932 0.0780779 0.25867954 0.1860389
000010 93 93 04 3e 4b 89 12 3e 89 90 1b 3e dc 5b 1f 3e
       0.1294692 0.14310186 0.15191855 0.15562385
000020 26 b8 1c 3e 4b 04 ba 3d 49 30 3b 3e ca c1 1e 3e
       0.15304622 0.0908285 0.18280138 0.15503612
000030 a8 15 07 3e 52 58 64 3e c3 f7 16 3e d0 25 1c 3e
       0.13191855 0.22299317 0.14742951 0.152488
000040 d2 04 43 3e 83 98 35 3e 74 68 8b 3d d2 07 1b 3e
       0.19044808 0.1773396 0.06807032 0.15139702
000050 79 46 53 3e 23 b2 21 3e 45 bd 20 3e 59 ca 2a 3e
       0.20632352 0.1579061 0.156972 0.16678752
000060 ac ff 13 3e fe 8b 1d 3e 3c 7d e4 3d 8a 1b 0f 3e
       0.14453 0.15385434 0.11156699 0.13975349
000070 8f d0 54 3e 71 20 2c 3e b9 d5 fb 3d 9c 40 24 3e
       0.20782684 0.1680925 0.12296624 0.16040272
000080 00 5a a3 3e 4c 8d 77 3e 67 4d d8 3e 43 d2 e8 3d
       0.31904602 0.24174994 0.42246553 0.11368229
000090 04 43 aa 3d 61 d3 47 3e 91 d9 59 3e 57 93 bf 3e
       0.083135635 0.19514228 0.21274401 0.374171
0000a0 7d fe 29 3e e5 ca 09 3e c8 84 13 3e 0b 59 19 3e
       0.16600986 0.13456304 0.14406121 0.14975373
0000b0 5b 58 1c 3e 67 76 12 3e 79 1c 75 3e 2a b5 20 3e
       0.1526808 0.1430298 0.23936643 0.15694109
0000c0 a1 2c bd 3d d4 f5 41 3e 7e 93 3d 3e 81 9e a2 3d
       0.09237028 0.18941432 0.18513295 0.079403885
0000d0 df 3d 16 3e 65 d9 fd 3d 78 b0 50 3e e6 8f df 3d
       0.1467204 0.1239498 0.20379817 0.10916118
0000e0 5e 2a 0c 3e c1 be 81 3e 02 93 bb 3d 15 94 dc 3d
       0.13688037 0.25340846 0.09158899 0.10770432
0000f0 0e 67 06 3e 44 8f c7 3d 8f 6d 02 3e d5 77 29 3e
       0.1312525 0.097441226 0.12737106 0.16549619
000100 2e 82 2b 3e f1 cc 52 3e 5e aa 29 3e d2 c3 26 3e
       0.16748878 0.20585991 0.16568896 0.16285637
000110 b7 7b 25 3e 06 73 53 3e 7c 3f 1a 3e 04 7c 25 3e
       0.16160475 0.20649347 0.1506328 0.1616059
000120 b2 c4 ea 3d bd 95 3d 3e d1 b1 75 3e 55 af f1 3d
       0.11463298 0.18514152 0.23993613 0.1180102
000130 ce 04 0c 3e 20 be 28 3e 64 e9 1e 3e f3 3c 42 3e
       0.13673708 0.16478777 0.15518719 0.18968563
000140 3e 88 04 3e 0e 7a f9 3d e6 db 25 3e 0d 4b ee 3d
       0.12942597 0.12181483 0.16197166 0.116354086
000150 30 08 62 3e 37 59 02 3e d6 8f 06 3e 10 cd 37 3e
       0.22073436 0.12729345 0.13140807 0.17949319
000160 b2 0c 19 3e 2e 38 20 3e 6f 83 ac 3d 4d 7c 8b 3e
       0.14946249 0.15646431 0.084235065 0.2724327
000170 b9 3e 01 3f fb bc 29 3e f7 44 c1 3d b7 7d ee 3d
       0.5048633 0.16575997 0.09436982 0.11645072
000180 ea 5c d2 3d c5 f3 0f 3e ab b1 05 3e 79 40 59 3e
       0.10271628 0.14057834 0.13056056 0.21216
000190 b4 fb 02 3e f8 7b 20 3e 47 f9 36 3e 55 ba 32 3e
       0.1279133 0.1567229 0.1786853 0.17453893
0001a0 c3 53 53 3e 75 dc 50 3e ec 55 ed 3d da e8 b8 3e
       0.20637421 0.20396598 0.11588654 0.36115152
0001b0 c3 b2 33 3e 05 af 28 3e 34 8b 12 3e 03 1a f9 3d
       0.17548661 0.16473015 0.14310914 0.121631645
0001c0 26 a4 fd 3d 50 96 de 3d 37 88 12 3e d0 f4 3d 3e
       0.123848245 0.108685136 0.14309774 0.1855042
0001d0 98 91 18 3e ba 9a e1 3d 91 73 0f 3e ce 11 fb 3d
       0.1489929 0.1101584 0.14008929 0.12259255
0001e0 02 c4 06 3e 34 78 08 3e b6 40 2a 3e fc 70 12 3e
       0.13160709 0.13327104 0.16626248 0.14300913
0001f0 fc 4c 47 3e 1d 0e ed 3d 06 9a eb 3d 47 a3 05 3e
       0.19462961 0.115749575 0.11503987 0.13050567

model.2.module.running_mean f4 [128]
000000 38 95 71 41 ff 0b 96 3f c6 b5 54 40 be 3f e6 40
       15.09893 1.1722411 3.3235946 7.195281
000010 c7 b2 fe 3f f4 93 8e 40 06 02 22 40 ec 88 a9 40
       1.9898309 4.4555607 2.5313735 5.297964
000020 70 eb 28 40 2e 31 92 40 14 4f d0 40 35 bd 48 40
       2.63937 4.5685034 6.509653 3.1365483
000030 03 af 90 40 ef e1 5f 40 08 2a a4 3f 1b bd 92 40
       4.5213637 3.498165 1.2825327 4.585584
000040 1a 81 c6 3f 4d a2 8b 40 b3 af 95 3f 3b 3c 2f 40
       1.5508149 4.363562 1.1694244 2.7380512
000050 d3 36 82 40 fe e3 20 40 9f d7 8a 3f d6 5b 0e 3f
       4.0691924 2.5139155 1.0847052 0.5560888
000060 e8 e9 36 40 7d f4 3a 40 e4 be 33 40 fa 4c 01 41
       2.8580265 2.9211724 2.808526 8.081293
000070 3e 3a e3 3f 72 8a 88 3f e4 cc 5b 40 b4 61 3c 40
       1.7752149 1.066725 3.4343805 2.9434633
000080 18 05 ce 3e 24 5f 28 40 58 58 32 3f ae 43 57 40
       0.4023826 2.630807 0.6966605 3.3635058
000090 05 18 48 40 2e 68 f3 3f c9 df bc 40 4a e9 d9 3f
       3.126466 1.9016168 5.9023175 1.7024319
0000a0 b8 89 fe 3e fc f0 48 40 44 a9 4c 40 f2 52 ad 40
       0.49714446 3.1397085 3.1978312 5.416375
0000b0 c8 7a 8f 40 6d 0e 4d 40 21 bc 48 3d a5 ca 34 40
       4.483738 3.2040055 0.04900754 2.8248684
0000c0 cb ab be 3f 28 58 dd 40 61 91 1c 40 d3 59 e4 3f
       1.4896177 6.9170113 2.4463732 1.7839912
0000d0 e9 2c 00 40 47 78 eb 3f 51 da cc 3f 7b 6e 34 41
       2.002741 1.8396081 1.6004125 11.276973
0000e0 1a 53 6e 40 02 04 6b 3f 63 d9 cd 3f f9 af c0 40
       3.723822 0.9180299 1.6081966 6.021481
0000f0 f7 5d a7 40 f6 c1 11 40 24 cf 8b 40 49 17 12 40
       5.2302203 2.2774634 4.3690357 2.2826712
000100 73 e4 1a 41 82 2b f0 3f 7f de 0d 40 59 bc 22 3f
       9.680774 1.8763278 2.216705 0.63568646
000110 67 c9 b3 3f 15 02 11 40 6a c9 09 40 13 8c 0d 40
       1.4045838 2.265752 2.1529183 2.2116745
000120 8c 74 10 40 53 6e 71 40 4b ef d6 3e 29 01 0b 40
       2.2571135 3.7723587 0.4197944 2.1719458
000130 34 db 92 40 b5 ac 0b 40 69 71 d0 3e 7e b8 77 40
       4.589258 2.1824162 0.40711525 3.8706355
000140 d9 03 13 40 cb 66 08 41 6d 8f 47 40 9e b3 aa 40
       2.2971098 8.525096 3.118129 5.334426
000150 f9 5e 22 40 77 7a 57 40 26 ca 29 40 11 cc 8e 3f
       2.5370467 3.3668497 2.6529632 1.1156026
000160 a4 63 66 40 4e 33 a6 40 d5 c7 99 3f ea 56 ad 3c
       3.5998316 5.193763 1.2014109 0.021159608
000170 b9 8b eb 3e 7c f8 8f 3f f1 56 f7 3f 5e f7 80 40
       0.46005037 1.1247706 1.9323407 4.030196
000180 ae 7a d1 3f 80 b2 67 40 a0 a9 f1 40 0d 1a 16 40
       1.6365564 3.6202698 7.551956 2.34534
000190 4d 6b 4c 40 b2 3f d9 40 9a 7f d0 3f 61 85 b1 3e
       3.1940491 6.7890253 1.6288941 0.34672073
0001a0 e1 6d 9b 40 cd 65 11 40 f9 c3 16 40 c8 c3 0f 3f
       4.857163 2.2718384 2.3557112 0.56158113
0001b0 df 9d 3e 40 a9 e3 de 3e 78 71 c3 40 6a a9 64 40
       2.9783857 0.43533066 6.107601 3.5728402
0001c0 81 25 04 3f c1 d5 ea 3e bb fb bd 40 c5 e0 43 40
       0.51619726 0.45866206 5.936979 3.0605938
0001d0 60 6f fa 3f 19 35 cf 3f 20 85 18 40 f6 22 62 40
       1.9565239 1.6188079 2.3831253 3.5333838
0001e0 5c 52 39 40 78 6b 6d 40 e8 be 49 40 6f 2a c2 3f
       2.8956518 3.7096844 3.152277 1.51692
0001f0 0a 60 9a 3e 4d cd 98 40 99 00 3b 41 2c 71 b6 3f
       0.30151397 4.775061 11.687646 1.4253287

model.2.module.running_var f4 [128]
000000 12 ca 36 46 f1 92 24 43 26 63 9a 43 41 49 8c 44
       11698.518 164.57399 308.7746 1122.2892
000010 85 6a ad 43 1c 13 a5 43 d3 fc 2d 43 1d 31 94 44
       346.83218 330.1493 173.9876 1185.5348
000020 bc 81 b1 43 97 2b 1d 44 ee 9e 3b 44 c0 b6 1b 43
       355.01355 628.6811 750.4833 155.71387
000030 58 09 e8 44 b1 2a eb 42 27 39 87 42 ce fc ff 43
       1856.292 117.58338 67.611626 511.97504
000040 fe f9 ed 41 3b 6d 36 44 4a 09 58 43 f4 8a b3 43
       29.747066 729.7067 216.03629 359.08557
000050 6d 25 fa 43 f3 fa b6 42 1f 12 7b 42 ff d3 a3 41
       500.2924 91.490135 62.767696 20.478514
000060 49 f1 d0 43 41 bc ec 43 1f 35 8e 43 12 37 28 45
       417.88504 473.47073 284.415 2691.442
000070 8c 33 5d 42 07 06 2a 42 e2 79 e5 42 6e 7e 87 43
       55.30034 42.505886 114.73805 270.98773
000080 f6 84 3c 3e f9 17 79 43 51 dd 33 3f aa cf 61 44
       0.18410096 249.09364 0.7025958 903.24475
000090 ed 45 84 44 2a 2c f9 42 04 89 51 44 b9 c9 e8 3f
       1058.1852 124.58626 838.14087 1.8186561
0000a0 ad 69 a1 41 84 da 94 44 59 10 70 43 bc ba 75 44
       20.1766 1190.8286 240.06386 982.9177
0000b0 ce 23 38 44 9c 86 83 43 da dc b4 3b 2e d4 6b 43
       736.55945 263.05164 0.0055194916 235.82883
0000c0 82 ff 70 43 fe 4b 7b 44 dd 02 63 43 a4 7b 83 43
       240.99808 1005.1874 227.01118 262.96594
0000d0 91 ba 4a 43 22 7f ae 43 53 c3 8b 42 1e d2 2c 46
       202.72878 348.99323 69.88149 11060.529
0000e0 f9 6c f6 43 da 63 43 3f fd a9 c4 42 5e 89 a4 44
       492.85135 0.76324236 98.33201 1316.2927
0000f0 3f 3a 0a 44 62 5c aa 43 4f 99 9b 44 f7 f7 66 42
       552.9101 340.72174 1244.7909 57.742153
000100 d4 f4 47 45 12 0f 66 42 34 87 36 42 22 39 44 42
       3199.3018 57.514717 45.632034 49.055794
000110 9c 1b ce 41 34 16 63 42 21 d6 63 43 cb 5d 5c 43
       25.763481 56.771683 227.83644 220.36638
000120 6b 73 cd 43 0f f7 08 44 36 b9 30 40 f7 a6 1c 43
       410.9017 547.8603 2.7613044 156.6522
000130 aa a2 ee 43 dc a8 81 42 b8 37 04 41 7c c8 05 44
       477.2708 64.8298 8.263603 535.13257
000140 6f 2e 7c 43 fa 2d d2 44 eb 2e 21 43 d9 f2 4b 44
       252.18138 1681.4368 161.18327 815.7945
000150 01 9e 51 42 70 2b d1 43 e0 3a a8 43 4e b1 22 42
       52.4043 418.33936 336.45996 40.67315
000160 09 72 13 44 31 89 97 44 de 25 4b 43 98 ac 8e 3a
       589.7818 1212.2872 203.14792 0.0010885177
000170 e8 b5 73 3e c1 f4 0e 43 88 fc 87 42 df 70 11 44
       0.2379986 142.95607 67.993225 581.7636
000180 ca 60 99 43 5a b2 52 43 40 dd e8 44 1e 6c 4a 41
       306.75616 210.69669 1862.9141 12.651396
000190 49 d1 de 43 de 5d ac 44 52 91 7a 42 c5 5d 8e 40
       445.63504 1378.9333 62.641914 4.4489465
0001a0 30 fb f4 43 34 a5 5a 43 2d 14 4d 44 2a 42 a3 3e
       489.9624 218.64532 820.31525 0.31886417
0001b0 38 b5 ae 43 4c 34 27 41 42 67 41 44 39 90 91 43
       349.41577 10.450268 773.6134 291.12674
0001c0 3e 2f fb 41 ac 0a 94 42 67 c2 b1 44 b7 29 df 42
       31.398067 74.02084 1422.0751 111.581474
0001d0 4c fc 0d 43 b6 03 c6 43 8d f8 9d 43 d5 46 22 44
       141.98553 396.029 315.9418 649.10675
0001e0 2b d5 31 44 2b f5 47 44 50 c6 d3 43 32 59 a4 42
       711.33075 799.83075 423.54932 82.17421
0001f0 cd 7e 8a 41 7e f9 52 44 8f 86 68 45 a2 36 33 43
       17.311914 843.8983 3720.41 179.21341

model.3.module.weight f4 [64, 128, 5]
000000 4f de 32 3e 58 b7 c9 bd 50 6d a1 be 33 bd 99 be
       0.17467616 -0.09849423 -0.3152871 -0.3002716
000010 2a 9b e8 be 3c dc dc bd bc d3 08 be 08 00 9e bc
       -0.4543088 -0.10784194 -0.1336202 -0.019287124
000020 0c 53 74 bd 1a f2 a0 3e 01 fa 9a 3d 69 c6 65 3e
       -0.059649512 0.3143471 0.07567216 0.22438969
000030 c0 11 5e bb c3 36 07 be 87 70 e7 be 81 3b 87 3b
       -0.0033885092 -0.13204484 -0.4520304 0.0041269665
000040 da 84 e4 bd e9 47 14 3d ac 08 16 3d 1d 75 55 3d
       -0.11158152 0.03620139 0.036629364 0.05211364
000050 aa 58 5e 3d b6 09 2b 3d 8b 0d 4c 3d 86 c6 24 bd
       0.054283775 0.041757308 0.049817603 -0.04022839
000060 0e 23 19 be ce 64 80 3d 9d 84 70 3d 5d 02 11 bd
       -0.14954779 0.06269227 0.05872022 -0.035402644
000070 83 09 21 37 18 ab 97 3c c3 ff 04 3c f0 6d 0a be
       9.598562e-06 0.018514201 0.008117619 -0.135185
000080 6a b4 d8 bc ce f1 ae be 54 25 9d be ab f2 87 3e
       -0.026453216 -0.34168857 -0.30692542 0.26552328
000090 7a 89 aa bd fd b7 33 3d af 0e 20 3e 74 ab ec be
       -0.08327003 0.043876637 0.15630601 -0.46224558
0000a0 bc 04 d2 3d 30 e5 d4 3d 1f 76 ac 3d ad 00 0e be
       0.10254809 0.103952765 0.08420967 -0.13867445
0000b0 e5 2a 03 3e f9 03 d4 bd 84 e6 03 be 69 f4 9a be
       0.12809332 -0.1035232 -0.12880903 -0.30264595
0000c0 ae 37 d6 be 76 59 e1 be 80 e0 95 3e ff c2 15 bd
       -0.41839355 -0.44013566 0.29272842 -0.036562916
0000d0 ca 86 50 be a5 40 e4 be 34 5d 43 bf 44 fe be bc
       -0.20363918 -0.4458057 -0.7631409 -0.023314603
0000e0 6a b7 65 3c b7 3a 25 be 79 f1 20 3c 35 00 d2 3d
       0.01402078 -0.16135679 0.009823197 0.10253946
0000f0 a0 46 ab 3d 62 f0 9f bb dc 88 6f bc 37 e2 5a 3b
       0.0836308 -0.004880951 -0.014620032 0.0033398995
000100 45 d3 b3 bd fe de 41 be ab 7d ff 3d f5 1b 65 3e
       -0.08780531 -0.18932721 0.12475141 0.22373946
000110 73 22 76 3e d2 57 ec 3d b7 2e 1a 3d 86 8d d2 bd
       0.24036579 0.11540188 0.037642207 -0.102809
000120 bc f7 c7 be 00 78 40 be e6 e9 d0 3b cb 0e 6b 3d
       -0.39056194 -0.18795776 0.006375539 0.057387155
000130 c3 5f 19 3d ea 1e be bc dc 9f b6 3d 0e 2b 55 3e
       0.03744484 -0.0232081 0.089172095 0.20817205
000140 a3 b0 29 3e df 1b c9 bd 57 bb 38 3c d4 1d ba 3d
       0.16571288 -0.09819769 0.011275134 0.090877205
000150 4f f5 23 3c cb 02 6a 3d 4e 20 9d be c9 c0 67 be
       0.010007217 0.05713157 -0.3068871 -0.22632135
000160 ce fd 4f bd 09 14 d1 bb c9 ef 8a bd ed f5 01 bf
       -0.050779156 -0.006380562 -0.06784017 -0.5076588
000170 6a 5f b7 be fa 06 c3 bd 20 bb 27 be ad ce 19 3e
       -0.35814983 -0.09522815 -0.16379976 0.15020247
000180 3f fd d4 3c b9 25 93 bd 43 b4 69 bd e4 65 f2 3d
       0.025999663 -0.071849294 -0.057056677 0.1183584
000190 3b 55 8d be 72 b0 4d 3d a0 2a 3c 3e 05 0f 3e bd
       -0.27604088 0.0502171 0.18375635 -0.046401042
0001a0 f7 03 3f be a4 6b 17 3e 69 aa f3 3d fc 96 06 3e
       -0.18653856 0.14787155 0.118977375 0.13143533
0001b0 41 eb 39 3e a9 5e f6 3c b8 01 16 3e d6 ac 1c bd
       0.18156148 0.030074434 0.14649093 -0.038250767
0001c0 12 e6 76 bd 48 09 17 3e 2a 77 91 3b 34 cb ba bd
       -0.060278006 0.14749634 0.0044392543 -0.09120789
0001d0 7a 4e 95 3d 78 a4 57 be 83 89 02 be fa 65 7c be
       0.07290359 -0.21058834 -0.12747769 -0.24648276
0001e0 2e e8 89 3b 83 4c bb bd f4 b4 0c 3e f6 68 59 3e
       0.004208586 -0.09145453 0.13740903 0.21231446
0001f0 22 31 c1 3d 6c 82 79 3d c5 09 62 bc 15 bf 66 3e
       0.094331995 0.060915396 -0.013796275 0.2253383
000200 de 16 2a 3d 11 87 bd be c8 bc 3a 3e 1c 3c 8a bd
       0.041525714 -0.3701711 0.18236077 -0.06749746
000210 3f a2 f5 3b c3 b6 44 3e a4 a9 8f 3d 98 3b 3f bd
       0.007496148 0.19210343 0.07014778 -0.046687692
000220 ec c3 05 bd 41 e3 38 bc e6 64 ba bd 58 6f 9f 3d
       -0.03265755 -0.01128465 -0.09101276 0.07784909
000230 9f 05 d8 be 70 9c 06 be 7c 3c 88 3d 0e 1e 5d 3e
       -0.4219179 -0.13145614 0.066521615 0.21593496
000240 a9 d8 e9 3e 12 f0 c0 3d d8 59 0c 3d 6a c6 b5 3d
       0.4567311 0.0942079 0.03426537 0.08875735
000250 03 e5 f5 bb 6b 35 4e bd 01 d4 ca 3d 9a 0b 9a bc
       -0.007504107 -0.050343912 0.09903718 -0.01880436
000260 6e 9c 93 bc e3 c7 21 bd 2c 53 1d 3c 30 a6 65 3e
       -0.018018927 -0.039497267 0.009602349 0.22426677
000270 15 c0 2d 3e f4 d6 2e 3e 8b d5 82 3d c7 e2 41 bd
       0.16967805 0.17074186 0.06388386 -0.047335412
000280 60 bb 6f 3d 7b 7f a3 be 61 62 08 bf d1 79 c3 be
       0.058528304 -0.31933197 -0.53275114 -0.38178876
000290 26 b9 4c be fc d2 89 3e 6d 1f 67 3e 13 00 f9 bd
       -0.19992504 0.2691878 0.22570582 -0.12158217
0002a0 d5 78 f1 bd 03 ef 0d bf 69 0e 61 3d 64 ac 0c bd
       -0.11790625 -0.5544283 0.054945383 -0.034344092
0002b0 b0 41 4f bd cb ce 1c 3e 8c 68 63 3e f1 76 4a be
       -0.050599754 0.1531326 0.2220785 -0.19771935
0002c0 61 77 eb be 17 5d d0 be 28 e3 49 be d0 e9 ab 3b
       -0.45989516 -0.40696022 -0.1971556 0.0052463785
0002d0 7a 64 1f bc fb 0e 32 bc a5 e8 36 3e 0f dd 82 3d
       -0.009728545 -0.010867829 0.17862184 0.0638982
0002e0 1b 1d 0f be 02 a8 1a bd cf 68 01 3e 3b 09 1a 3e
       -0.13975947 -0.03775788 0.12637638 0.15042584
0002f0 3f 76 8f 3e 61 1d 8c 3e 6e e6 7a bd 22 c7 83 be
       0.28019902 0.27366164 -0.06125491 -0.25737864
000300 3d 27 12 bd 36 24 5b be 44 97 b2 be b2 c5 5c bd
       -0.03568195 -0.21400532 -0.34881032 -0.053899474
000310 24 42 0f be 65 91 71 bc 01 05 0d 3e 1f a7 b7 3e
       -0.13990074 -0.014744137 0.1377144 0.3586969
000320 47 81 ab be e8 59 2d be 8f b7 01 3e 5d 83 69 3e
       -0.33497068 -0.16928828 0.12667678 0.22804017
000330 52 9a 15 be 61 ae 16 bd 08 a3 d9 3c c0 7a 06 be
       -0.1460965 -0.036787394 0.026566997 -0.13132763
000340 f1 2e 11 be e8 8c 78 3c 9c ce 52 3d 74 a8 84 bc
       -0.14178063 0.015170313 0.05146657 -0.016193606
000350 8b 3a 86 3c 94 62 24 be 19 e2 e2 be 06 67 1f 3d
       0.016385337 -0.1605323 -0.44313124 0.03891661
000360 1b c2 47 3d 6e 74 98 3e fd 98 20 3e 10 6f 55 bd
       0.048769098 0.2977633 0.1568336 -0.05210787
000370 57 a8 5f be ec 01 bc be 1d a9 66 be 9c e8 b0 bd
       -0.2184156 -0.36720216 -0.22525449 -0.08638117
000380 33 54 0d 3e 97 4a d5 be 00 d4 7e be dc 79 3c 3c
       0.1380165 -0.4165847 -0.24885559 0.011503663
000390 bb 9f 28 3e 23 49 43 3e 85 af ae be 92 f2 7a be
       0.16467182 0.19070868 -0.34118286 -0.24506596
0003a0 f0 96 df bd 94 20 4c 3e 03 e8 00 3f c7 de 4b 3e
       -0.10917461 0.19934303 0.5035402 0.19909202
0003b0 b5 6c 1d bc 65 a7 11 be f0 aa e9 be 58 07 0a bf
       -0.009608437 -0.14224012 -0.45638227 -0.53917456
0003c0 5d 1d 75 bd 06 e6 e1 3d 5a 38 b1 be 1c 73 ed 3d
       -0.059842456 0.110302016 -0.34613305 0.11594221
0003d0 a3 29 8e 3c 4b 1a 87 3e 0a 3a 70 3d df ad 92 3c
       0.017353838 0.26387247 0.0586491 0.017905174
0003e0 61 8c a5 bd d3 ee aa be d9 2f 80 bd e0 b1 d6 be
       -0.08083416 -0.33385333 -0.06259126 -0.41932583
0003f0 46 5f ce be 61 37 ea be 51 6b ff be d4 72 0f bc
       -0.40307063 -0.45745376 -0.49886563 -0.0087554045

model.3.module.bias f4 [64]
000000 66 d3 56 3e dc 7f 50 be 35 1d a3 bc 90 9d e4 bc
       0.2097908 -0.20361274 -0.019911388 -0.027907163
000010 a4 02 d1 bd 85 50 40 bd ec b3 80 3b de d1 3c 3b
       -0.10205582 -0.04695179 0.0039276984 0.0028811614
000020 4f db 7d bb 33 4b 46 bc 38 ad af bd bb 0e 91 bd
       -0.0038735454 -0.01210289 -0.08577961 -0.07082888
000030 7d 09 a7 3d c2 10 85 bd 19 f7 b9 be 44 88 10 be
       0.081561066 -0.06497337 -0.36321333 -0.14114481
000040 59 ae 01 be 8c e9 cc bd 6a 4c 3d be cb ff cd bd
       -0.12664165 -0.10005483 -0.18486181 -0.10058554
000050 1d b0 37 bd 1e 23 3b bc 8f fd e6 3d 7d 6d 0f be
       -0.04484569 -0.011421947 0.11278831 -0.1400661
000060 30 ff 85 be ba 46 bf bd c7 3b 5b bd b2 8f c4 bd
       -0.26171255 -0.09339662 -0.053523805 -0.0959772
000070 16 36 8c bd 2b 95 18 bd 9a 28 ff bc 8a 80 f1 bd
       -0.068462536 -0.037251633 -0.03114729 -0.11792095
000080 13 c8 25 bd fc a7 67 3c 23 60 7f bd 3d d2 f2 bc
       -0.04047401 0.014139172 -0.062347542 -0.029641265
000090 84 c1 a7 3c a0 20 2b be 10 5f 87 bd 8e ff 90 3c
       0.020478018 -0.16711664 -0.066099286 0.017699983
0000a0 33 d9 3d be ab ba c7 bc 07 58 cb 3d 70 e4 a8 3d
       -0.18539886 -0.024381002 0.09928899 0.08246696
0000b0 28 cc fb bd b3 8c 01 3e d8 af 2a be ac 9b 49 be
       -0.12294799 0.12651329 -0.16668642 -0.1968829
0000c0 76 56 fe bc ca 37 5b 3c 16 e4 85 bd 0a be 66 3d
       -0.031047087 0.01338 -0.065376446 0.05633358
0000d0 db 6f 32 bd 11 4f 15 3e d2 1b 85 bd e6 3d e3 3e
       -0.043563705 0.14580943 -0.06499447 0.44383162
0000e0 5c c8 a8 3d c3 41 44 3d 8f d7 e6 3c e9 89 b4 bb
       0.082413405 0.047914278 0.028178958 -0.0055096042
0000f0 17 69 5a 3e 03 8c 8a 3d 68 a8 22 bd 17 62 78 3c
       0.21329151 0.06764986 -0.039711386 0.015160105

model.6.module.weight f4 [64, 64, 4]
000000 02 b3 09 be 69 58 d9 be a6 fc ac bd 60 f1 f7 3e
       -0.13447192 -0.42450264 -0.08446626 0.48426342
000010 48 73 19 be e3 8a 8f bd 14 a6 fc bd ab 77 fa 3c
       -0.14985383 -0.070089124 -0.123363644 0.03057464
000020 10 28 be bd ed 8b a9 bd 0d 86 e7 3c df fa 5e bd
       -0.09284985 -0.08278642 0.028262163 -0.054438468
000030 35 ec d8 3e b8 35 85 3d 0f 33 51 be 79 3a 66 bd
       0.42367712 0.06504387 -0.20429634 -0.056208108
000040 fc 7a 38 3c f8 7b 8c bc 86 71 28 3e a3 c2 74 3e
       0.0112597905 -0.017148957 0.16449556 0.23902373
000050 87 69 17 3e 96 8c 6b 3d b7 e1 64 bd a6 8e 03 3d
       0.14786349 0.05750712 -0.05587932 0.032118462
000060 3c 67 5c bd cb 55 6e be 4d b3 84 be 51 6d 28 be
       -0.05380939 -0.23274915 -0.25918046 -0.16447951
000070 b5 b8 09 bf c1 da 65 bd 1a 62 fa 3d 84 b5 04 3e
       -0.53797466 -0.056116823 0.12225743 0.12959868
000080 d2 66 90 bf 40 24 34 be 5c ee 1a bd fa f1 37 be
       -1.1281378 -0.17591953 -0.037824973 -0.179634
000090 72 81 4a 3e 7e a0 37 3d 97 e1 9b be 89 06 f5 be
       0.19775942 0.04483079 -0.3044555 -0.47856548
0000a0 dc d5 a6 be 88 5a 97 be 52 62 0b bf d7 da 08 bd
       -0.32585037 -0.29561257 -0.544469 -0.033411827
0000b0 b0 f9 73 be f2 83 86 3e cc fa 80 3e 98 e2 4f 3e
       -0.23825717 0.2627254 0.25191343 0.20301282
0000c0 24 c1 fa bc 9f b8 7c 3e 1e a5 07 bc e0 9a c0 bd
       -0.030609675 0.24679802 -0.008279113 -0.0940454
0000d0 2d 57 95 be 90 78 db 3d 63 f6 84 3e 5c e9 fe 3e
       -0.29168072 0.10716355 0.25969228 0.49787414
0000e0 fd 86 d4 be 16 45 28 be 5f 80 32 be f0 04 b7 bd
       -0.41509238 -0.16432604 -0.17431782 -0.08936489
0000f0 21 bd 8d bc 0f 9f f2 bd 45 7b e3 3d 90 ad 9e 3e
       -0.017302098 -0.11846744 0.11107496 0.30991793
000100 81 11 a7 be 56 a5 5a bd 9a 9a 97 bd 03 16 f8 3d
       -0.32630542 -0.053380333 -0.07402535 0.121135734
000110 22 17 97 3e df 12 74 3d fa b9 ff bc a1 96 67 bd
       0.29509836 0.05958831 -0.03121661 -0.056540135
000120 f6 61 1b 3e 13 17 4d be 59 ac 5b be d1 6f ae be
       0.15174088 -0.20028333 -0.21452464 -0.34069684
000130 6d 0a ce be 29 53 b1 be 0e 38 17 be cb 79 30 3c
       -0.4024233 -0.3463376 -0.14767477 0.010771225
000140 3d 1c 3c be c9 55 ad be f1 76 aa be 2d a8 b1 3c
       -0.18370147 -0.3385451 -0.3329387 0.021686638
000150 3d af 08 bd df f1 34 3e 71 16 02 be 84 68 0f bf
       -0.033370245 0.17670391 -0.12703873 -0.56018853
000160 b6 a3 f4 bd 91 57 ba bd 02 35 b9 3d 01 79 f0 3d
       -0.11945288 -0.09098733 0.090433136 0.1174183
000170 fe 8e f1 3e 07 6b 69 3e 07 5c 0d 3e 51 03 77 3e
       0.47179407 0.22794734 0.13804637 0.24122359
000180 62 a6 0c bf 45 a1 94 be 8e dc 6e be 3b 65 43 be
       -0.5494138 -0.2902929 -0.23326322 -0.19081585
000190 a1 14 8f be d2 8e ea bd 70 20 1e be d9 6a 0b 3d
       -0.27945426 -0.11453022 -0.15442061 0.034037445
0001a0 fb eb a6 3e ef cb fd 3c fc a2 71 bb af 02 0a be
       0.32601914 0.030981032 -0.0036870828 -0.13477586
0001b0 73 25 8d 3e 2f 0d ab 3d de bc f4 3c 50 82 98 3d
       0.27567634 0.08352124 0.029875215 0.0744673
0001c0 5b b7 9a 3e ba ca 03 3e d0 c7 05 3d c6 1a 78 be
       0.30218014 0.12870303 0.03266126 -0.24228963
0001d0 51 6d c2 bd 0c d8 e8 bd 1a 71 1e be 14 27 83 be
       -0.09493507 -0.11369333 -0.15472832 -0.25615752
0001e0 9b 5c af be c3 d4 10 3c e8 b2 9e bd e1 05 19 3e
       -0.3425034 0.008839789 -0.077489674 0.14943649
0001f0 a4 64 ca 3d 8e ea 60 be 5b 5b 05 be 5c bf c9 bd
       0.09882477 -0.21964476 -0.1302313 -0.09850952
000200 6b 68 b8 3d 8d c1 ea bc dd c8 2c bd 8c 31 80 bd
       0.09004291 -0.028656745 -0.042183746 -0.0625945
000210 be 91 11 3e db 46 94 3d ad 62 4b 3e f5 f6 3c 3e
       0.14215752 0.07240077 0.1986186 0.18453582
000220 76 d9 fc bc 2f 90 04 be 9e 04 94 bd fe 77 ba 3d
       -0.030865412 -0.12945627 -0.07227443 0.09104918
000230 92 a4 f8 3e e1 50 95 3e 32 61 2c bd de cf 25 be
       0.48563057 0.29163268 -0.04208488 -0.16192576
000240 e2 02 57 3e 65 d7 71 bc 04 af 8d be 50 fa f3 be
       0.20997193 -0.014760827 -0.2767259 -0.4765191
000250 35 cc 01 bd 0e 18 92 3e 55 bf 1c 3e 83 a3 07 3e
       -0.031688888 0.28533977 0.15307362 0.13245969
000260 20 f3 e6 bc 0e 0f 01 bd 9d 7f b9 3c 68 fb 56 bd
       -0.028192103 -0.031508498 0.022643859 -0.052485853
000270 6b 63 2b bf 00 c3 92 be 02 20 07 be fa 07 d6 bb
       -0.66948575 -0.28664398 -0.13195804 -0.0065317126
000280 de f9 74 3e bf 99 d0 3d bd 75 0a 3e 34 b7 5c 3e
       0.23923442 0.10185575 0.13521476 0.21554261
000290 35 4b 0a bb bc 60 50 3e f4 39 a3 3d f9 dd ae 3d
       -0.0021101956 0.20349401 0.07970038 0.08538432
0002a0 60 66 7e 3d 0c 07 a4 3d 99 58 ce 3d c8 b7 8f 3e
       0.06210935 0.080091566 0.100754924 0.280699
0002b0 5d d5 e3 bd 07 ff 7d bd 0a 93 93 3d f0 a0 1a 3e
       -0.1112468 -0.06201079 0.0720578 0.15100455
0002c0 d4 4a df 3d f6 fa 30 bd c1 28 c4 bd 11 d0 a0 bd
       0.10902944 -0.043208085 -0.09578086 -0.078521855
0002d0 76 85 30 3e 9e 88 86 bd 94 5e ba be 18 f3 5c be
       0.17238411 -0.065690264 -0.36400282 -0.21577108
0002e0 ac 09 1a bf c5 4a a7 bd 47 62 2f 3d d3 3c 3d 3e
       -0.6017101 -0.08168558 0.042818334 0.18480234
0002f0 d1 11 26 3e 9a 97 93 3e ed bb ab 3d 49 5c b3 bd
       0.16217734 0.288266 0.083854534 -0.08757836
000300 12 b6 71 bd 14 32 ae be df 44 de be eb a0 b0 be
       -0.059011526 -0.34022582 -0.4341192 -0.3449777
000310 bb a1 1d 3c 8d 76 17 3a f8 a8 5e 3d 4c 35 94 3e
       0.009621079 0.00057778583 0.05436036 0.28946912
000320 16 9c 80 bc 19 1d 38 be da 5b 96 be f5 5c ac bd
       -0.015699428 -0.1797985 -0.29366952 -0.08416168
000330 01 9d c1 be f3 8c 6d be 82 2d 76 be 10 60 d1 3c
       -0.37815097 -0.23198299 -0.24040797 0.025558501
000340 9d dd 36 be 91 32 24 be 5e f9 4a be 59 da 22 3e
       -0.17857976 -0.16034915 -0.19821689 0.15903606
000350 41 7e c8 3d fb f3 1d 3e b2 b0 d6 3d dd 45 4d 3e
       0.09789706 0.15425102 0.10482921 0.20046182
000360 73 5a 59 bd d9 0f af bc 6c 1f 12 bc e2 5b 42 bd
       -0.053064775 -0.021369861 -0.008918624 -0.047450908
000370 5f 24 ee 3e 9b df db 3d 7f 15 ac 3c a4 df 84 3d
       0.46512124 0.10736009 0.021006344 0.064879686
000380 01 77 d1 3e 43 e1 01 3e f7 0f 21 be b7 d7 f6 be
       0.40911105 0.12683587 -0.15728746 -0.48211452
000390 7d 47 93 3e f8 50 66 3e c8 6c 69 3e a3 62 b9 3d
       0.2876548 0.22491825 0.22795403 0.090520166
0003a0 fd 06 83 be a0 7d 55 be a3 c9 76 bd 47 74 9a 3e
       -0.2559127 -0.20848703 -0.06025089 0.30166838
0003b0 5b 9b 07 3d b7 eb 9f 3d 7f 70 2d 3e 0d 4d 98 bd
       0.033107143 0.07808631 0.16937445 -0.07436571
0003c0 41 2a 0a 3d fe aa 46 bd 0d 4c 06 be 87 34 26 bf
       0.033731703 -0.048502915 -0.13114949 -0.649239
0003d0 18 55 0b bf 4b 7b 4f be 0c b8 32 3d f5 13 62 3e
       -0.5442672 -0.20261876 0.043632552 0.22077926
0003e0 5a 1a 10 3a 1c 88 02 3e 8b f6 29 3c e0 1b 8e be
       0.0005497091 0.12747234 0.010373722 -0.27755642
0003f0 bb 41 dd 3d 0a da 2d bd f4 7b 2f bc 11 a6 23 3e
       0.10803553 -0.042444266 -0.010710705 0.15981318

model.6.module.bias f4 [64]
000000 e1 6e e1 3e 63 88 0a 3e 97 4f 1e 3e 1b 20 58 bb
       0.44029906 0.1352859 0.15460049 -0.003297812
000010 26 21 ab 3d 31 5b 24 3d bd f3 9e 3d 18 62 2e 3d
       0.08355932 0.04012603 0.07761333 0.04257402
000020 9f b7 2c 3e 7e cc 24 3e 87 d3 d4 3c d0 72 3e 3e
       0.16866921 0.16093633 0.02597977 0.18598485
000030 a2 6f 1a 3e d1 68 86 3e ed a6 92 3e 12 dd 61 be
       0.15081647 0.26251844 0.2864298 -0.22056988
000040 0d 5a 0b 3e 28 27 1d 3f 8d 3a 49 bd 96 b8 3c 3e
       0.1360857 0.6138787 -0.049128104 0.18429789
000050 2b f2 8e 3d 9c b9 94 3d 29 bb c9 bd 63 63 84 3e
       0.069797836 0.07261965 -0.09850151 0.25857076
000060 a4 e2 c4 3e 18 cc 68 3e 5a 83 80 3d f8 36 39 3e
       0.38454163 0.22734106 0.06275053 0.18087375
000070 ae 1c f8 3d ba e0 23 3d a9 10 f9 3d 7e d9 04 3e
       0.12114845 0.040009238 0.12161381 0.12973592
000080 da a9 88 3e e5 28 4b 3e 17 98 3a 3d ac 1b 4e 3e
       0.26692086 0.19839819 0.0455552 0.20127743
000090 a5 eb 0f 3d cb 8c cf 3c bc 72 84 bd 7d 6f bb bd
       0.035136838 0.02533569 -0.06467196 -0.09152124
0000a0 d1 ad 0d be 2b d4 f2 3d 17 5a 8b 3d 9b 27 55 3d
       -0.13835837 0.11856874 0.06804293 0.052039724
0000b0 7a c1 96 3e ac e3 5f 3e 73 d6 2a 3e 9a b7 2e 3e
       0.29444486 0.21864194 0.16683368 0.17062226
0000c0 72 d4 db 3d d1 21 d0 3d 32 e1 e7 bd 39 a4 b2 3e
       0.1073388 0.101627 -0.113222495 0.34890917
0000d0 29 c2 2c 3c 35 01 1e 3e aa 82 ac 3e 12 67 1d be
       0.010544338 0.15430148 0.3369344 -0.1537135
0000e0 14 2b e4 bc 77 33 b6 3e bb ea 6f 3e 36 bb b2 3d
       -0.027852573 0.3558614 0.23429386 0.08727114
0000f0 59 dd e4 3d 6b 22 6e 3e 05 e4 2a 3e a3 90 8e 3e
       0.11175031 0.23255317 0.16688545 0.27844724

model.10.module.weight f4 [16, 128]
000000 12 04 32 3e ec 24 dc 3d 7e 7e 60 be cc 26 fe bd
       0.17384365 0.1074923 -0.21923253 -0.12409744
000010 2c f9 cc bd 1b 6f 03 be 59 d3 89 3e f7 d2 43 3e
       -0.10008463 -0.12835352 0.26919058 0.19123445
000020 02 37 2d 3e 5b 48 3f 3e b7 52 d8 be 78 89 de be
       0.16915515 0.18679945 -0.42250606 -0.43464255
000030 0c 16 04 3e d6 1d fa 3d 28 9f c5 bd bb 3b 78 be
       0.12899035 0.12212722 -0.09649497 -0.24241535
000040 dc 95 35 be 77 9f ba bd 64 6a fd bd b4 06 b7 be
       -0.17732948 -0.09112447 -0.12373808 -0.35747302
000050 b4 ce a2 3d c6 c4 84 3e ea 1c 93 bc e0 77 a1 bc
       0.07949582 0.25931376 -0.017958123 -0.019710481
000060 b0 53 d4 bd 95 6d 27 be 94 40 68 be a8 99 9e be
       -0.103675246 -0.16350396 -0.22680885 -0.30976605
000070 ef 82 89 be cb f2 fb bd ce 71 a9 bd 84 4c c6 bc
       -0.26857707 -0.123021685 -0.0827366 -0.024206407
000080 48 e0 f9 3d f2 74 bd 3d 69 1b 63 3e 19 da a1 3d
       0.122009814 0.09250821 0.22178425 0.07902927
000090 66 f4 db 3e 04 3e bb 3e f4 29 31 bf c9 13 f2 be
       0.429599 0.36570752 -0.6920464 -0.4728072
0000a0 e8 ed 92 bd cc b8 95 be 43 d7 ca 3d e6 ec 84 3e
       -0.07174283 -0.2924255 0.09904339 0.2596199
0000b0 b2 b6 8a 3e b8 0d 88 3e 43 c6 2d 3d a4 32 2e bc
       0.2709251 0.26572967 0.042425405 -0.010632191
0000c0 c5 2b de 3c bb ba ea ba 1e 48 73 3e 92 aa 17 3e
       0.02712048 -0.0017908433 0.2375798 0.14811161
0000d0 be ec ec 3e d7 04 94 3e c1 c5 3d be df 89 37 be
       0.4627437 0.28909943 -0.18532468 -0.17923687
0000e0 c5 80 c4 3e da 6b 14 3e dd 70 c9 3e f8 91 df 3d
       0.38379493 0.14494267 0.3934392 0.10916513
0000f0 30 27 25 3e 5c c1 24 3e 33 1f 04 bd b8 21 96 3d
       0.1612823 0.16089386 -0.032256316 0.0733065
000100 56 c4 4e be f9 39 d1 3c 4f 73 f3 3d f0 be 1e 3d
       -0.20192084 0.025540339 0.11887228 0.03875631
000110 00 2d b1 bd a6 35 ab bd 72 6d 71 bd 97 d4 cb bc
       -0.08651161 -0.08359842 -0.058942266 -0.024881644
000120 a1 ed e3 bd 8a 0f fe bd c5 6f eb bd 93 12 04 be
       -0.111293085 -0.124053076 -0.11495928 -0.1289771
000130 07 23 95 3d 7a 99 db bd 2d 31 9d be aa f1 6c be
       0.072820716 -0.10722633 -0.3070158 -0.23139063
000140 0a 4f 4a 3e c2 1b 8e 3d dc 0c e6 3c d3 98 b1 3d
       0.19756714 0.06938888 0.028082304 0.08671727
000150 52 f3 21 bc b9 8f eb 3d 1e a0 d2 3d 55 e7 5e 3e
       -0.009884672 0.11502022 0.10284446 0.21767934
000160 8b 63 4f be 97 1b 42 be b7 11 d8 bd ee 8d 15 be
       -0.20252816 -0.18955837 -0.10550254 -0.14604923
000170 04 e1 5d bd 99 74 29 3e b3 4f 66 3d 77 4c 83 3d
       -0.05416967 0.16548385 0.05622835 0.06411069
000180 ce db 23 3d 2b 77 c5 bc 2a 0d 47 3d e2 91 ae 3d
       0.040004544 -0.024104675 0.04859654 0.08523919
000190 c8 81 48 3e 61 0e d5 3d 1b 6e c6 3e 4b d8 64 3e
       0.19580758 0.10403133 0.3875588 0.22348134
0001a0 91 fd c3 bd 46 7c 25 3d 92 0e 8f 3d 2b 0e 68 bd
       -0.09569848 0.04040172 0.06985201 -0.056654137
0001b0 93 c2 f4 3d e7 07 10 bd 97 3f dd bd 88 a9 0c 3e
       0.119511746 -0.035163786 -0.108031444 0.13736546
0001c0 23 e5 cd 3e 17 0f 5d 3e a2 c3 3a 3d f3 34 2a bd
       0.4021388 0.21587788 0.045596726 -0.041554403
0001d0 55 5d 2b be d1 e3 2f 3b b0 41 c1 3d 60 d4 19 bc
       -0.16734822 0.002683867 0.09436357 -0.009389013
0001e0 ac be 52 3e a9 57 d9 3e 0f bd 39 bd 6c 77 f8 bd
       0.20580548 0.42449692 -0.045346316 -0.12132153
0001f0 9c 3a b0 3e 0b 58 6c 3e 04 25 a6 be 25 d4 f6 bd
       0.34419715 0.2308046 -0.32450116 -0.12052182
000200 66 f8 52 3e 0c bc c3 3c f1 58 9c 3e b8 1c 0e be
       0.20602569 0.023893379 0.30536607 -0.13878143
000210 ec 70 72 3d 9c 9f 18 bd f7 47 1a bc bd 17 64 be
       0.059189722 -0.03726159 -0.009416572 -0.2227468
000220 c1 84 92 3d aa 25 86 3e 65 d5 55 3c e0 f2 8f 3c
       0.07154227 0.2620061 0.0130513655 0.017571867
000230 5e 13 be 3d 40 b4 aa 3d 4c 46 07 3d 90 83 76 3d
       0.09281038 0.08335161 0.033026025 0.06018406
000240 94 26 02 3e 84 08 4e 3e 4c a2 b2 3d 04 1f 63 be
       0.12710029 0.20120436 0.08722362 -0.221798
000250 63 ba b5 bc f7 f0 9a bd 91 f2 7b 3e 19 2f 45 3e
       -0.022183603 -0.07565492 0.2460425 0.19256248
000260 d9 46 47 bd 01 e9 06 3e 73 83 f2 be fe 40 c1 be
       -0.04865155 0.13174821 -0.47365913 -0.37744898
000270 ea e8 9d bd 69 07 47 bd 57 eb 0d be d9 da 5f be
       -0.077104405 -0.04859105 -0.13859306 -0.21860828
000280 d6 32 8a bd d2 23 d3 3d 9c 7d 2e 3d cc 83 2c 3e
       -0.067479774 0.103095666 0.04260026 0.16847152
000290 b9 43 16 3e a2 1b dd 3d 07 60 3f bc a1 3b 05 3e
       0.14674272 0.10796286 -0.01168061 0.13011028
0002a0 9f c9 c0 3d 3c f1 14 bb 83 bc d2 bc d0 62 fe bd
       0.09413456 -0.0022726795 -0.025724655 -0.12421191
0002b0 b5 4c ca bc 7d 3b df bd e5 0b ba be f5 b8 a2 bd
       -0.02469478 -0.10900018 -0.363372 -0.07945434
0002c0 99 59 9e 3d d6 36 a9 bd e1 d7 86 3e 24 4b 85 3e
       0.07731933 -0.08262412 0.26336578 0.2603389
0002d0 ad 9a ff 3d b0 28 90 3d 58 01 2f be 87 68 86 bd
       0.12480674 0.070390105 -0.17090356 -0.06562906
0002e0 24 df b5 3d b3 dc 83 3d 79 37 8f 3e dd 6a cc 3d
       0.08880451 0.064385794 0.2797201 0.0998132
0002f0 56 dd e7 bc 1c 85 18 be 9c e6 ec bc 86 7b 03 bc
       -0.028303783 -0.14894527 -0.028918557 -0.008025056
000300 64 a0 d3 be 10 5c ed be df ea 6b be 3c 59 d5 be
       -0.41333306 -0.463593 -0.23038815 -0.41669643
000310 67 20 5b bb c5 31 c7 bd d6 30 13 3d 16 f5 7a be
       -0.0033436061 -0.0972629 0.035935245 -0.24507555
000320 4f ee ba 3d 02 0e 74 3e 63 3e a5 be 92 79 44 be
       0.09127485 0.23833469 -0.3227416 -0.19187
000330 de 77 fe bd 80 77 a1 bd 75 0e cd 3b e2 01 36 3e
       -0.124252066 -0.07884121 0.006257827 0.17774156
000340 4c c4 2e 3d 4a 83 37 be b8 ce 5a 3d d0 a3 dc 3c
       0.042667672 -0.17921177 0.0534198 0.02693358
000350 0d 35 e9 bd f1 81 5a bd 44 bf 3e 3d 9e 17 0b 3e
       -0.11387072 -0.053346578 0.046569124 0.13583228
000360 79 76 ed 3e 80 d0 56 3e 66 dc ff 3e 9c 64 c0 3e
       0.4637945 0.20977974 0.49972838 0.3757676
000370 b3 da 4d bc 94 88 36 3d ee 25 30 be 1d 1f d2 bd
       -0.012564349 0.044563845 -0.17201969 -0.10259841
000380 57 54 90 be 0c 16 0c be d6 2a ee be f0 9a e0 be
       -0.28189346 -0.13680285 -0.46517056 -0.43868208
000390 c2 2d 98 3e c1 f7 52 3e 2b 70 45 3e 55 ca 1b 3e
       0.2972241 0.20602323 0.1928107 0.15213902
0003a0 a2 e9 90 3c a8 03 03 3c 59 0e 59 3d 99 cb a7 3d
       0.01768953 0.007996477 0.0529922 0.0819313
0003b0 63 ef 23 3e c0 87 ba 3d 59 a0 99 be 03 1c 88 be
       0.16009288 0.091079235 -0.30005148 -0.2658387
0003c0 9c 56 15 be a0 8d 04 be 51 ba a7 3d 79 db 02 be
       -0.1458382 -0.1294465 0.08189834 -0.12779035
0003d0 d6 b5 8a 3e cd 68 77 3e 6d 12 2d 3e 51 58 a0 3e
       0.27091855 0.24161072 0.1690156 0.3131738
0003e0 ef 00 09 3d af 44 c2 3d 51 35 83 bd bf 9b 24 3e
       0.033448156 0.094857566 -0.06406654 0.16075037
0003f0 83 d7 a4 bd 30 11 17 be cc ab 75 3d 7f 5a 82 3d
       -0.08048918 -0.1475265 0.05997829 0.06364917

model.10.module.bias f4 [16]
000000 d6 75 69 3e c9 46 cf 3e 7a 65 b1 3d ba d3 83 3e
       0.22798857 0.40483692 0.08661933 0.25747472
000010 41 05 84 3e 8a c7 a5 3d 5c 58 01 be 45 ce a5 3e
       0.25785258 0.080947 -0.12631363 0.32383934
000020 ae d4 9e 3d 2d a2 71 3e fd 6a e9 3e 9c 58 84 3e
       0.07755409 0.23597021 0.45589438 0.25848854
000030 1d c6 09 be f3 b7 de 3e a7 94 8c bd a0 cb 60 3e
       -0.1345448 0.43499717 -0.06864291 0.21952677
